results/SGD_Cosine_Lr0.05_DN4_Conv64F_Local_Epoch_30_miniImageNet_84_84_5Way_5Shot/model_best.pth.tar (torch, 922564 bytes, 40 tensors)

features.features.0.weight f4 [64, 3, 3, 3]
00000000: b4e8 9a3a f872 cb3c 24d6 333d 5ae2 ed3a
00000010: 0379 a73c aa01 423d b6fa d73b d812 803c
00000020: 072a 1f3d b54e 7fbc 1cb7 48bb 1d79 4c3c
00000030: cddc 45bd dd1e 31bd 08b8 20bc d60f 21bd
00000040: 2d18 2bbd 73a3 7bbc 8dd5 1bbd 884e 28bd
00000050: 742c 13bd ab43 2fbd f524 47bd da07 03bd
00000060: c1e8 28bc 5233 81bc d548 bdbb c46c 303d
00000070: 6f6f 503d e2e6 a33d e062 a5bc 5bbf 74bc
00000080: 4ddb 163d b8d8 7dbd fd26 a2bd fd0e f03b
00000090: ff5a 3f3d 5fb3 443d afd9 493d 4d95 abbc
000000a0: 265e d3bc 1d0d 80bb dc84 90bd 8370 c2bd
000000b0: 7994 16bd eada 03bd 5c93 26bd 7fc8 15bd
000000c0: 06a7 5abd 98df 77bd 8b38 60bd 4236 d6bc
000000d0: 7674 25bd 45be 96bc fe6d ecbd b9d3 8a3e
000000e0: 18f5 fbbd 15b3 c7be a0ca 2b3f 8d28 c9be
000000f0: eb8e fdbd b00e 993e 559f cabd 474c c7bd
00000100: 7605 913e 0b78 eebd f0e8 d7be 9674 343f
00000110: c2a9 cebe e6ab 32be 1a1a 9a3e 4843 d7bd
00000120: 4f4f 2abd bb60 143e d900 aebd 063a 97be
00000130: 2e13 1d3f 9a54 a9be b1b6 ccbd 57ec 3a3e
00000140: fa1d a4bd 281f 583e 86e1 863e b644 5f3e
00000150: 490a 663c 01ec efbb 797b 1ebd 0edf 14be
00000160: 51e7 90be a18d 73be 7b54 763e b2e4 903e
00000170: 9461 733e 3244 b33c 0ff2 2abc 74b5 44bd
00000180: cdb7 1bbe 2d21 9dbe 106c 81be 7cba 293e
00000190: 6c7a 653e e2b7 253e 14b3 173c 585f 05bb
000001a0: 6b97 28bd 6c29 f6bd 1136 76be f544 36be
000001b0: 5060 183c 4a51 793e 8a1c 40b9 8fac 4dbd
000001c0: d34b f0be 8e6c 05be 53c0 30bb 1833 8b3e
000001d0: 4e5e 013e 9218 553d 2651 7e3e a486 29bb
000001e0: fbb4 89bd 8124 02bf 488d 1dbe 87fa 153b
000001f0: e4fe 8a3e 1410 123e bce0 e23c 377a 633e
00000200: 4862 9abb 0a9f 223c 9b3c c2be 92b8 94bd
00000210: 4a3d 56bd 6446 433e de64 813d 65d1 43bb
00000220: c6e9 84bb fcf5 12bb 926f c1ba d90f 2fbb
00000230: c622 eaba 07d3 e739 5384 a0b9 0379 f4b8
00000240: 562f 31bb 578a 7abb c576 37bb ebab 46ba
00000250: 71d4 f9ba 1c66 b1ba b25f db3a d471 903a
00000260: f048 943a 02e7 2abb 850d 85bb dbed 35bb
00000270: 0ea3 b1ba 7cd2 4bbb 4c7c 17bb ee14 893a
00000280: e871 4237 8f7a 5c39 df7f 71bc b4ee 89bc
00000290: 4cbe ffbb 658a 6abc 93ab 88bc f5a3 28bc
000002a0: a7c7 74bc 8676 96bc 1d70 76bc b3d1 c0bc
000002b0: f81b dfbc 9460 8ebc 3148 8bbc c7ef abbc
000002c0: 4232 4fbc 989e 3abc 0999 80bc a1c5 20bc
000002d0: 2f13 20ba 3230 a8bb d36d 8639 c041 dc3a
000002e0: 9215 abbb e84a 84b9 e8a0 9d3b 5c39 3abb
000002f0: e2ee 833a acb7 803d e3d6 053e b09d b73c
00000300: 9565 883d 106d 0dbd 1ae3 c9bd 36cf a2bd
00000310: 5b26 03be bc27 61bc 2e3e 883d 82c0 2f3e
00000320: 305b 9b3b a6a7 0b3e fbb4 323d 3e36 d6bd
00000330: 4855 4abd c195 e8bd fb85 4abd 20b5 013e
00000340: ec73 1d3e 79b7 35bd 91f1 213e 291e a1bb
00000350: 6aea 33be 1332 4bbd eab2 1dbe bc6d 91bd
00000360: 5c8a 67bb f458 59bb 27a1 4cbb 880f 77bb
00000370: b51e 64bb 6b6b 49bb c2c5 7dbb 58cb 57bb
00000380: 50ab 4dbb e425 0ebb 087c 02bb 7689 d7ba
00000390: 83c3 20bb db63 0ebb 1eee d0ba 3346 21bb
000003a0: ba91 f5ba 72d3 d1ba 8abe b1ba 0749 97ba
000003b0: 6329 64ba 77d9 dcba f2ce bcba f7c9 64ba
000003c0: e0cc d6ba 6191 8dba 735e 54ba 4b8a 62ba
000003d0: 9e88 66ba 03fb 5bba ee0f 53ba 95be 4eba
000003e0: e68b 4fba 1d72 3fba 1f59 46ba dc8c 3bba
000003f0: 70b0 14ba 479f 1dba 4c63 0cba 66f1 f6b9
0.0011818619 0.024835095 0.043905392 0.0018149123 0.020443445 0.04736487 0.0065911664 0.015633985
0.03885844 -0.01558273 -0.003062672 0.0124800475 -0.048306275 -0.043242324 -0.0098095015 -0.039321743
-0.041771103 -0.015358794 -0.038045455 -0.04109052 -0.035931066 -0.042789143 -0.04861923 -0.03198991
-0.010309399 -0.015771542 -0.0057765045 0.043072477 0.05088752 0.08003022 -0.020188749 -0.014938201
0.036830235 -0.061974257 -0.07917593 0.0073260055 0.04671764 0.048022624 0.049279865 -0.020945216
-0.02580173 -0.003907813 -0.07056591 -0.09494116 -0.03676269 -0.032191195 -0.040667877 -0.03656816
-0.053381942 -0.06051597 -0.054741424 -0.026148919 -0.04039427 -0.018401274 -0.11544417 0.27114657
-0.12302607 -0.39003816 0.67106056 -0.3928875 -0.12380775 0.29894018 -0.098936714 -0.097313456
0.2832448 -0.1164399 -0.42169905 0.70490396 -0.4036389 -0.17448387 0.3009804 -0.1051088
-0.04157954 0.14490025 -0.084962554 -0.29536456 0.6135739 -0.33072358 -0.09995783 0.18254219
-0.0801353 0.21105635 0.26343936 0.21803555 0.014040538 -0.007321835 -0.03869197 -0.14538214
-0.2830148 -0.23784496 0.24055664 0.2829948 0.23767692 0.021883104 -0.010433688 -0.04802461
-0.15206833 -0.30689374 -0.25277758 0.16575044 0.22409981 0.16183427 0.009259004 -0.0020351019
-0.04116003 -0.12019619 -0.24044062 -0.17799743 0.009300306 0.24347416 -0.00018321179 -0.050213393
-0.4693285 -0.13029692 -0.0026970103 0.2718742 0.1263363 0.052025385 0.24835643 -0.0025867606
-0.067239724 -0.5083695 -0.15385926 0.0022884922 0.2714759 0.14263946 0.027695052 0.2221459
-0.004711423 0.009925613 -0.37936863 -0.072617665 -0.052304544 0.1906982 0.06318067 -0.0029879448
-0.0040561883 -0.002242445 -0.0014757982 -0.0026712327 -0.0017863146 0.0004421698 -0.00030616167 -0.00011657367
-0.002703627 -0.003822943 -0.0027994376 -0.00075787184 -0.0019060505 -0.0013534459 0.0016736893 0.0011020252
0.0011313241 -0.0026077633 -0.0040604495 -0.002776018 -0.0013552622 -0.00311008 -0.0023114858 0.0010458508
1.1589822e-05 0.00021026492 -0.0147399595 -0.016837455 -0.0078046676 -0.014315222 -0.016683375 -0.010292997
-0.014940179 -0.018367063 -0.015041378 -0.023537492 -0.027235016 -0.017380036 -0.017002197 -0.020988358
-0.01264626 -0.011390351 -0.015697973 -0.009812743 -0.0006106374 -0.0051326985 0.00025640297 0.0016804263
-0.0052210772 -0.00025232811 0.0048104413 -0.0028415537 0.00100657 0.06285033 0.13070254 0.022414058
0.0666 -0.03452784 -0.09857769 -0.079496786 -0.128076 -0.013742384 0.06652485 0.1716328
0.004741095 0.13638172 0.043629628 -0.104595646 -0.049397737 -0.11356688 -0.04944418 0.1266675
0.15376252 -0.044364426 0.15814807 -0.0049169254 -0.1756989 -0.0496083 -0.15400282 -0.07101008
-0.0035330271 -0.0033164592 -0.0031223984 -0.0037698466 -0.0034808342 -0.0030734192 -0.003872261 -0.0032927599
-0.0031382628 -0.0021690065 -0.0019910354 -0.0016444165 -0.0024530597 -0.0021727 -0.0015940105 -0.0024608492
-0.0018735447 -0.001600845 -0.0013560813 -0.001154215 -0.0008703677 -0.0016849478 -0.0014404936 -0.0008727605
-0.0016387962 -0.0010800773 -0.0008101232 -0.0008641823 -0.0008794161 -0.00083915907 -0.0008051385 -0.00078866753
-0.000791727 -0.0007303076 -0.00075663807 -0.00071544736 -0.0005672043 -0.0006012809 -0.00053553726 -0.00047100632

features.features.0.bias f4 [64]
00000000: 93ef 7a36 48e7 a338 1e76 5738 523d dcb7
00000010: 1eed 85b8 36b1 4fb7 1333 6b38 1a77 1bb7
00000020: 7d52 2e38 cbca 3f37 d1df 32b7 ea75 89b8
00000030: 2efc b7b5 8742 83b8 fa50 6fb8 ab78 4d38
00000040: 0208 88b8 37ad 49b8 eafb 7e38 9435 a1b8
00000050: 99f5 6b38 d060 ebb7 7e11 9eb8 5dcc 28b5
00000060: 0fe2 8eb7 7f2b 1bb8 9273 2e38 22c8 b0b5
00000070: dadb afb7 a9c3 a4b6 0da9 7038 7d9d 31b5
00000080: fb7c 14b8 ffce fcb7 e4e0 64b6 1ea9 55b8
00000090: cac1 b036 b47d 8b38 58c3 93b8 e89d 5537
000000a0: 8d4a 96b8 def2 26b8 5607 f5b7 e363 ae37
000000b0: 1b4a 7f38 0162 7838 4b5f 7038 b29a 75b8
000000c0: b01c cbb5 e8fd 9f38 677a a438 3487 21b6
000000d0: 43c4 4b38 83bb cb37 3818 5c38 7693 2fb7
000000e0: b9d4 d5b7 21f8 3eb8 a2b8 01b8 a74f a1b8
000000f0: 90c7 0738 11d3 9038 b1fc ca37 2e46 6538
3.7392354e-06 7.815525e-05 5.137e-05 -2.6254598e-05 -6.386101e-05 -1.2379422e-05 5.6075933e-05 -9.26645e-06
4.1561656e-05 1.1431704e-05 -1.0661738e-05 -6.554632e-05 -1.3707956e-06 -6.2589585e-05 -5.7057456e-05 4.898819e-05
-6.486477e-05 -4.8083453e-05 6.0792932e-05 -7.687058e-05 5.6257097e-05 -2.8059265e-05 -7.537285e-05 -6.2882265e-07
-1.7032986e-05 -3.699539e-05 4.1592466e-05 -1.3171268e-06 -2.0964002e-05 -4.9103587e-06 5.73779e-05 -6.6166814e-07
-3.5402347e-05 -3.0137131e-05 -3.410555e-06 -5.094066e-05 5.2677688e-06 6.6514505e-05 -7.045892e-05 1.2732555e-05
-7.1664435e-05 -3.9803672e-05 -2.9209692e-05 2.078893e-05 6.0865754e-05 5.921908e-05 5.7309207e-05 -5.8556623e-05
-1.5133028e-06 7.6290045e-05 7.8429286e-05 -2.4069568e-06 4.8581755e-05 2.4286803e-05 5.2474643e-05 -1.0465146e-05
-2.5490635e-05 -4.5530618e-05 -3.092795e-05 -7.691915e-05 3.2372365e-05 6.905769e-05 2.4197945e-05 5.4663215e-05

features.features.1.weight f4 [64]
00000000: d49f b53d 074d 423e caaf a33e 5961 9c3e
00000010: 6aec 763e 2568 1d3c 97a1 583d 8086 b63e
00000020: 9536 933a c274 f63a d5e1 d13d 0e58 473e
00000030: 9dcf c5ba 7786 bd3d 0a62 493e 255c 053e
00000040: a645 2bbb 405b 4f3e cf01 f5ba 4aa2 5db9
00000050: 5676 483e 36c3 033e dac9 2b3e 61f8 9e3e
00000060: 84a9 703e 0d9a 0c3e 45f5 a93d 50ba a83c
00000070: a401 f93d 0d5f 163e bebc 883e 7f96 223b
00000080: a39b 78bd 4ea3 5ebb fcf8 003b d9ab 3b3e
00000090: ec1c 2bb7 6910 2f35 232e b33e a913 803e
000000a0: 5358 8e3e bd53 703e 82b7 d3bc 6927 9a3e
000000b0: 18d7 243e c64e 393e 9306 053e 1848 4a3e
000000c0: 7ea8 dc3d 14b5 783e 38ea 26b8 0af9 973e
000000d0: fe5d 063d 267c bfba e847 563e 037a 55bc
000000e0: 5b39 c13e f30d 4b3d ec9d f63a f8cb 0c3e
000000f0: 8a4e 193e 31cc a13e fdb6 613d 96ef 903b
0.088683754 0.18974696 0.31970054 0.3054302 0.24113622 0.0096073495 0.05288848 0.3564949
0.0011231477 0.0018803107 0.10248152 0.19467184 -0.0015091781 0.09254163 0.19666305 0.13023432
-0.0026134043 0.20249653 -0.0018692556 -0.0002113666 0.19576392 0.12867436 0.16776219 0.31048873
0.23502165 0.1373064 0.082987346 0.020596653 0.12158516 0.14684696 0.267065 0.002480894
-0.0606953 -0.003397185 0.0019679656 0.18327273 -1.0199128e-05 6.521646e-07 0.34996137 0.25015
0.2780176 0.23469444 -0.02584434 0.30108193 0.16097677 0.18096456 0.12990789 0.19754064
0.10774325 0.24287826 -3.9795617e-05 0.2968219 0.03280448 -0.0014609143 0.20925868 -0.013029578
0.3773907 0.04957385 0.0018815375 0.13749683 0.14971367 0.31601098 0.05510615 0.004423092

features.features.1.bias f4 [64]
00000000: 8b24 adbc a55d 3dbe 87b6 f0bb e7c4 803d
00000010: 46e4 6e3b 13c3 fbba bbdd 98bb 7815 8bbe
00000020: cf06 edba e67a 55bb 1d7e 383d c24c 25be
00000030: 6f8a 0fbb 239c 993c 5789 e1bb 41d8 f6bd
00000040: c0aa 883e b14a 7fbd bccf 463e 6be4 a03d
00000050: 06f8 bbbd 56b4 8b3c 2181 f33d c091 803c
00000060: b78c f6bd 8d28 90bd 9df4 eb3a e160 90bc
00000070: 86ef 1dbe 8588 7d3d 192a dd3d 9b68 4fbb
00000080: b15b 26bd 7809 6b3e dc37 ecba 82d5 5c3d
00000090: 6e25 d63d cdbb 1fba 1495 083e 6e5f b63d
000000a0: fcba f03d d282 6fbe 3ca7 09bd 52d3 d63d
000000b0: ef56 903c 86bc 77be 301d 33be 3253 30be
000000c0: 1c8e 4e3d 3a4f a33d ea72 e43d 2210 243d
000000d0: 91f3 8b3c 2ab7 0bbb 65ce 62be d54d 81bc
000000e0: a65f 96be cb67 7abc fd73 6a3e a209 9a3c
000000f0: 9327 d1bd 9dc9 103d d3fc 20bd ffdc 003e
-0.02113559 -0.18492754 -0.0073459777 0.06287556 0.003645198 -0.0019207917 -0.004665104 -0.27164817
-0.0018083694 -0.0032574474 0.045042146 -0.16142562 -0.0021902581 0.01875121 -0.0068828273 -0.12052966
0.26692772 -0.06232709 0.19415182 0.07856067 -0.09178166 0.017053764 0.11889864 0.015694499
-0.12038558 -0.070389844 0.0018001978 -0.01762432 -0.15423402 0.061897773 0.10799045 -0.0031648043
-0.040614787 0.22952831 -0.0018022018 0.053914554 0.10456358 -0.0006093353 0.13338119 0.089049205
0.117544144 -0.23389748 -0.033606753 0.10489525 0.017619578 -0.2419301 -0.17491603 -0.17219236
0.050428495 0.07974096 0.111547306 0.040054448 0.017083915 -0.002131889 -0.22149046 -0.015784184
-0.2936985 -0.015283535 0.22895809 0.018803421 -0.10212626 0.035348523 -0.039303612 0.12584303

features.features.1.running_mean f4 [64]
00000000: dfbe 943d 3078 c23d 4d19 31bb 9de9 ae3b
00000010: f37b 643b 35c5 c33b 1776 083d ede1 cf3b
00000020: c410 f73b 2053 0e3b 7919 8b3d a54b a0bd
00000030: b94a 1aba 5cec 85bd 278b a2bb 8c20 6e3c
00000040: b599 2cba 517c 50bc 0e40 d3bb 8130 39b9
00000050: 7ba4 ef3b 1c87 dd3d 6a9f 40bd 076a f33b
00000060: 0b53 a83b 1efc f73b e91d 843c c704 fe3b
00000070: 4817 90bc b20b e43c 407b e5b9 61c0 bf3a
00000080: 21e7 e1bc 33ef 2a3b 3579 f7b9 c987 e0bc
00000090: 6d3d d036 cb4d c93a 5f34 353c f1c9 5dbd
000000a0: 32fa 043c 6aea 32bc f33a 643c a582 863b
000000b0: e4ed 02be 35ff 83bc 120a 90bd 7b82 15bd
000000c0: 6792 bd3d fb1d 8bba 1e53 ca38 2453 a3ba
000000d0: d80c 10bc 8ea2 74bc 32cf 9dbc 00f9 a93b
000000e0: dd46 8ebb 2dc3 573c f409 d73b 37c6 f5bb
000000f0: b206 823c 544d 093c 2805 77b8 c54f 333c
0.07262968 0.0949558 -0.0027023137 0.0053379075 0.0034863919 0.0059744366 0.033315744 0.006344071
0.0075398404 0.0021717027 0.06791968 -0.07826928 -0.00058857683 -0.065392226 -0.004960436 0.014534127
-0.00065841834 -0.012724952 -0.006446845 -0.00017661044 0.007313309 0.10816786 -0.04702703 0.007428411
0.0051368526 0.0075678965 0.016127544 0.0077520343 -0.017589226 0.027837608 -0.00043770112 0.0014629477
-0.027576031 0.0026082515 -0.00047201818 -0.027408497 6.206034e-06 0.0015358267 0.0110598495 -0.054147664
0.008116292 -0.0109201465 0.01393007 0.0041049295 -0.1278606 -0.016112903 -0.07033171 -0.03650139
0.0925644 -0.0010613793 9.6475924e-05 -0.0012460691 -0.008792125 -0.014931334 -0.019263837 0.005187154
-0.0043419437 0.013169092 0.006562466 -0.0075004357 0.015872333 0.008380253 -5.889419e-05 0.0109443115

features.features.1.running_var f4 [64]
00000000: 2b59 f13c 33e3 6b3d 757a c03d 06f3 3c3e
00000010: 064f 003d 9acc cd39 18b9 b03c fb70 183d
00000020: 6ff4 633a c0d7 7d38 69a8 0c3d 17ab 363d
00000030: e9f3 3737 c9f4 ff3c 8ed6 fd3b 744e 843c
00000040: 5b66 8f39 4cf7 af3c 1fed 6839 98e9 9037
00000050: 0340 cc3c 2feb 5f3d 64ba 3a3d fea4 8e3d
00000060: 9e75 963c dc04 913b f9dc ab3c 26c8 e139
00000070: 0279 893c e275 9d3d f90f b53c 6c84 bc37
00000080: 765b ab3b 6053 6139 62a8 3d37 855b aa3d
00000090: 1406 6132 f852 4f38 848c 2f3e 9d6d b93d
000000a0: f8e5 1c3e 51bf ae3c b1d1 a03a 36c3 343e
000000b0: 433b 233e 6518 803c 2d8f 013d 08e8 4f3d
000000c0: 3bbc c53d 061d 773c a07b fb34 f60b be3d
000000d0: 885d 4f3c 3e87 1f3b 7ee2 bf3c 4ecc 4a39
000000e0: f1f3 1c3d efa8 b43b a58f 8c3a 6048 7e3c
000000f0: 8484 7e3c 576c aa3d ec83 4c3b 1b52 103a
0.029461464 0.05758972 0.09398357 0.18452081 0.031325363 0.00039253087 0.021572635 0.03721712
0.0008695786 6.0520833e-05 0.034340296 0.044596758 1.096444e-05 0.031244652 0.007746524 0.01615069
0.00027351346 0.021480225 0.00022213579 1.7274913e-05 0.024932867 0.054667648 0.045587912 0.069650635
0.018366631 0.004425628 0.020979391 0.00043064466 0.016781334 0.076885 0.022102343 2.247301e-05
0.005229409 0.00021488732 1.13044825e-05 0.08318237 1.3098106e-08 4.9429917e-05 0.17143446 0.0905411
0.15322101 0.021331461 0.0012269524 0.17652592 0.15940575 0.015636632 0.031630684 0.05075839
0.09655043 0.015082603 4.6842342e-07 0.09279625 0.012656577 0.0024342085 0.02342343 0.0001934033
0.03831858 0.0055133025 0.0010723962 0.015520185 0.015534524 0.083214454 0.0031206561 0.0005505399

features.features.4.weight f4 [64, 64, 3, 3]
00000000: 2dd1 e43b 8c34 a03a 60a6 02bb 8ddb 0c3c
00000010: 6147 503b 857e 01bb c374 b4ba 49cf 253b
00000020: 9f71 df3a 6fe2 a8bc 715f 33bc ac17 ab3b
00000030: 8c99 0cbd c8f1 b5bc 05c1 bdba 0dbf 33bd
00000040: 9207 03bd 5017 4bbc 9a50 4d3c b9de 5e3b
00000050: 432f 3db9 91fa 66bc 57de 073c 990d 323b
00000060: f397 f9bb a9aa 603c a79a cebb 68fd bb3c
00000070: d445 173b 5f8c a9bb bda2 f33b 6927 98bc
00000080: 8a97 83bb 08cb 04bd bfb0 85bc adc0 a43b
00000090: 430b 01bc 7af4 55bc ac65 b93b d93d 2fbc
000000a0: 628a 01bb 1e27 463c 7a1b 7fbc c835 45bc
000000b0: e9e7 ebb9 00af e03a 68c8 a5b5 86b9 a5ba
000000c0: 94b6 1e3b 0987 c538 1971 08bb bfe0 543b
000000d0: 0ffa a73a 43fd beba da4f a33c 92b3 103b
000000e0: 78c1 6dbc a4a7 e43c 1667 033c c50e 8ebc
000000f0: 1f44 023d ca95 823c 2a0b 13bc d74d b2bc
00000100: f04e f03c 26a5 213c 23fb 3ebd eeeb 5f3c
00000110: 331e a53c e51a 6f39 0d50 cd3c c833 4dbc
00000120: ba8a d439 c522 8339 7903 2d39 5a3e cc39
00000130: e52a ab39 b37a 9539 b095 a439 6e84 a639
00000140: 1261 6639 5ea0 a339 b9e9 7739 2b66 1139
00000150: 21be b139 0ab7 a439 e343 2139 9c53 9c39
00000160: 4499 9b39 f3e9 a138 5c28 a5bd 4e23 04b9
00000170: 3318 a83d b440 0abe e21d 9fbc 7c69 d33d
00000180: 48b2 f1bd 4c45 c1bc 921a a93d 74a2 46bc
00000190: 61f6 9bbc 60e0 a7bc 9833 a93c 37b6 d53a
000001a0: 10ac c2bc 3659 963a c4eb 4dbc 4b53 c1bc
000001b0: 44a7 7839 99d5 7739 2aee 9338 1e78 7d39
000001c0: 29b5 a539 b60e 0e39 faa2 6c39 8269 9039
000001d0: 4ca3 ab38 04e1 9b3b 83fc 9e3c da42 1a3d
000001e0: e020 efbb 0ebf ef3b 8373 fc3c 324d 31bb
000001f0: 5710 173c 88bd 093d 15d9 793d 0d57 14bc
00000200: 5b42 1abd d4ae d33d 8c2e 823c 6bf4 b3bd
00000210: bc2d 083d f9d6 a23b 6116 78bd 5d03 433b
00000220: 9d65 e03a 1229 b33a 65ba 11bc 4e13 00bc
00000230: b869 24bc 9eb0 e9bb cfad f7bb b143 35bc
00000240: ed5d ae3a 3bfe 4d3b 85df 143d c54a 4fbc
00000250: dba1 1cbc a1fc c83c 1b20 52bb 6df3 99ba
00000260: b362 1d3d 3ced bf3c e68b 09bd 1b11 3dbd
00000270: 8d07 dc3d 8434 1d3a 640a b0bd f9bc b43d
00000280: 4c94 ffba efbf 94bd f2ed ca3a e14f a13a
00000290: 88ad d33c 2b8d fbbb fd22 03bc 5ee4 8c3c
000002a0: 36cb e0ba a33b 12bb fe47 de3c 5331 e43a
000002b0: 0eb7 f03a 66f2 3b3c 8d9b fdba ed1f edba
000002c0: ebf6 063c aa3a e339 8266 053a fc9a 473c
000002d0: a436 6e3d 8356 dfbc c106 e1bd 9803 033e
000002e0: 1461 ab3c 9498 b0bd a040 f43d de34 353d
000002f0: 18c4 49bd e7e2 90bd 7297 20bb 5b56 943d
00000300: a5c6 0dbe a045 a8bc 0bd1 e73d fe73 0fbe
00000310: 96e3 0fbd 2d7d c83d 302d d83d cbcd 84bd
00000320: 673f 31be d3e0 803e b195 f63c 4cbc 39be
00000330: 4ec6 4a3e cd2b b63c a518 04be fb98 a3bb
00000340: 41d6 b83c cbb7 d6bb de3b 8abc eea4 0f3b
00000350: f5b9 1d3b 99e3 88bc 03d6 0fbb 0f48 163c
00000360: 5840 1cbc ff47 f23c 6c21 9ebc 5b5d 28bc
00000370: 445c 143d e10f 99bc 04cb 5fbb 8195 313d
00000380: 5408 d83b c5f1 523c 6a0b 953b e021 3abd
00000390: 0e71 463d e819 6b3c 11d1 45bd 8894 363d
000003a0: 779e be3c b4ff ecbc 46b0 b1bc 575c 8cbc
000003b0: a2ff d03c 9e3d 1dbd e3ac 17bd ba15 d23c
000003c0: ac0b 12bd d2a1 17bd 9f09 683c 090f 1e3a
000003d0: 30df 3a3a 07f3 e13a bfeb 50b9 a986 b8b9
000003e0: 63b0 3c39 6d61 b0ba a319 e0ba 8c2c eaba
000003f0: a191 0bbb 7305 46bc 7de7 e2bc 4fd9 c33b
0.0069829435 0.0012222691 -0.0019935593 0.008597267 0.0031780826 -0.001975925 -0.0013767708 0.0025300554
0.0017047412 -0.020615784 -0.010948048 0.0052213278 -0.03432612 -0.022210017 -0.001447708 -0.043883372
-0.03198964 -0.012395695 0.012531424 0.0034007265 -0.00018042051 -0.014097826 0.008292756 0.002716875
-0.0076169907 0.013712564 -0.006305057 0.022947982 0.0023082392 -0.0051742042 0.0074351714 -0.01857348
-0.0040158676 -0.03242019 -0.01631963 0.0050278516 -0.00787622 -0.013058776 0.005657872 -0.010695898
-0.001976632 0.012094287 -0.015570516 -0.012036748 -0.0004499548 0.0017141998 -1.2351784e-06 -0.0012643791
0.0024217712 9.418844e-05 -0.0020819365 0.0032482592 0.0012815612 -0.0014571327 0.019935537 0.0022079688
-0.014511459 0.027911969 0.008020183 -0.017341027 0.031803247 0.015940566 -0.00897483 -0.021765633
0.029334515 0.009866035 -0.04662622 0.01366709 0.020156002 0.00022802835 0.025062585 -0.012524553
0.0004053915 0.00025012172 0.0001649986 0.00038956368 0.0003264762 0.00028510913 0.00031392043 0.00031760655
0.00021970671 0.00031209266 0.00023642824 0.00013866338 0.00033901728 0.00031416892 0.00015379446 0.00029816933
0.00029678096 7.720655e-05 -0.080643386 -0.00012601653 0.08207741 -0.13501245 -0.019423429 0.10322854
-0.118015826 -0.023592614 0.08257021 -0.012123693 -0.019038381 -0.020492733 0.020654485 0.0016304915
-0.023763686 0.0011470679 -0.012568418 -0.023599287 0.00023713434 0.00023635327 7.053868e-05 0.00024172707
0.00031606227 0.00013547656 0.00022567427 0.0002754443 8.184332e-05 0.0047570486 0.019407516 0.03766141
-0.00729762 0.0073164767 0.030816799 -0.0027054069 0.009220204 0.033628017 0.06099804 -0.009053958
-0.037660938 0.1033608 0.015891336 -0.087868534 0.03324674 0.0049694744 -0.060568217 0.0029756643
0.0017120127 0.0013668856 -0.008894538 -0.007817103 -0.010034971 -0.00713165 -0.0075585614 -0.011063502
0.0013303139 0.003143205 0.036345977 -0.012652104 -0.009560074 0.024534525 -0.0032062593 -0.001174552
0.038424205 0.023428552 -0.033580683 -0.04615889 0.10743628 0.00059969 -0.08595732 0.08825106
-0.0019499152 -0.07263171 0.001548229 0.0012307131 0.025839582 -0.0076767406 -0.008003947 0.017198738
-0.0017150405 -0.0022313378 0.027133938 0.0017409719 0.0018365101 0.0114713665 -0.0019348726 -0.001809118
0.008237581 0.00043340522 0.0005088822 0.012182947 0.058157578 -0.027262932 -0.10987616 0.1279434
0.020920314 -0.08622852 0.11926389 0.04423987 -0.049259275 -0.07074528 -0.002450433 0.072430335
-0.13845308 -0.020541012 0.11319169 -0.14009091 -0.035129152 0.097895004 0.10555494 -0.064845644
-0.17309342 0.25171527 0.030100675 -0.18138236 0.1980221 0.022237683 -0.12900026 -0.004992602
0.022563102 -0.0065526715 -0.01687425 0.0021918374 0.0024067138 -0.01671009 -0.002194763 0.009172454
-0.009536825 0.029575346 -0.019303046 -0.010276164 0.036220804 -0.01868433 -0.0034148106 0.04335547
0.0065927897 0.012875025 0.00454848 -0.045442462 0.04844766 0.014349438 -0.048295084 0.044575244
0.023268921 -0.028930523 -0.021690499 -0.017133875 0.02551252 -0.03838884 -0.037030112 0.025645126
-0.035655662 -0.03701956 0.01416245 0.0006029462 0.00071285944 0.0017238565 -0.00019924248 -0.00035195544
0.00017994786 -0.001345677 -0.0017097484 -0.0017866059 -0.0021296518 -0.01208626 -0.027698273 0.005976833

features.features.4.bias f4 [64]
00000000: 9735 11b5 2fa8 75b7 7416 81b6 2e68 0db7
00000010: 2b37 4537 f138 4737 871b 8ab7 badf a336
00000020: 7b11 68b6 139c 4c37 9469 2337 0d3f 9bb5
00000030: 8ff4 2a37 890d 5837 6a5f 4737 0000 8f37
00000040: 38e3 64b7 3de1 7db7 fc15 8337 cfd9 adb6
00000050: 435b 8eb7 4710 d4b4 e9f6 86b7 5be1 8436
00000060: fa8d 9d36 b4c4 5937 1b91 0ab6 6a49 93b7
00000070: 060f 2337 7d81 6336 6482 3ab7 f18e 6737
00000080: ab7d 32b7 fd4d 8bb7 a970 0bb7 f855 9137
00000090: 7422 3a37 7b5f 1a37 8641 9035 aa8e 8fb4
000000a0: 488f 07b7 0f7a 72b6 d03b d236 a4db 28b7
000000b0: c07a 22b7 7a85 2c36 8ba1 67b6 97c9 bf36
000000c0: 3695 38b7 91b7 8fb6 463d 80b7 8f76 88b7
000000d0: 3dc5 8637 8af1 3136 012a 6b37 da03 7a37
000000e0: c63e 4135 9c82 8536 8858 9fb6 b623 9337
000000f0: d80e 78b6 932a 4b36 4ad0 4637 29c1 e736
-5.409469e-07 -1.4642296e-05 -3.8471135e-06 -8.428511e-06 1.175496e-05 1.1874582e-05 -1.64637e-05 4.8838237e-06
-3.458087e-06 1.2195686e-05 9.740139e-06 -1.156675e-06 1.018973e-05 1.2877755e-05 1.188354e-05 1.7046928e-05
-1.36427625e-05 -1.51324175e-05 1.5626654e-05 -5.181158e-06 -1.6970216e-05 -3.949992e-07 -1.6089021e-05 3.9601414e-06
4.695493e-06 1.2980006e-05 -2.0648065e-06 -1.7557952e-05 9.719055e-06 3.3901008e-06 -1.1116823e-05 1.3801954e-05
-1.0638886e-05 -1.6606407e-05 -8.311276e-06 1.732538e-05 1.1094486e-05 9.201346e-06 1.0747906e-06 -2.6739627e-07
-8.079987e-06 -3.6131858e-06 6.265451e-06 -1.0064719e-05 -9.684532e-06 2.570769e-06 -3.4515713e-06 5.7157117e-06
-1.10019955e-05 -4.283102e-06 -1.5287322e-05 -1.6267672e-05 1.6065891e-05 2.651565e-06 1.4016871e-05 1.4902058e-05
7.198945e-07 3.978914e-06 -4.7488757e-06 1.7540395e-05 -3.696352e-06 3.0274139e-06 1.1850216e-05 6.9068233e-06

features.features.5.weight f4 [64]
00000000: da2f 423e 5908 5a3e 7cb4 263e 5653 933e
00000010: f2e0 9e3e ca56 863e cec2 903e a696 043e
00000020: d3ae 083e 3e02 ae3e 770b b03e 4aa6 8a3e
00000030: 622a ab3d 02ae 083e ced6 533e b62c 003e
00000040: cb7f 313e 0da3 7b3e e553 b53e b2cd 8e3e
00000050: e348 a83e 0497 6b3e d46d 993e 4fe4 2b3e
00000060: 96eb 663e 2a50 b33e ba67 ee3e d091 8d3e
00000070: 041d 293e 6be8 703e 3e98 9e3e 7e76 903e
00000080: d99b 613e 5f16 1d3e bdde 7d3e da9b 1c3e
00000090: ac3c 913e 6020 693e c336 783e 71c0 a73e
000000a0: b96a 4f3e 0e6c b93e 62b7 8b3e 8302 d53d
000000b0: 906a 503e b4da a03e 2463 333e a134 c83d
000000c0: af64 ac3e cd10 0f3e 74a4 7e3e ee2c 9f3e
000000d0: 0992 733e 5630 1d3e 313a 893e 5c2b 993e
000000e0: c813 ae3e ea9b ba3e 8271 a33e 81a2 b03e
000000f0: d62e 9d3e 2a70 913e 9fbc 3c3e ff39 8b3e
0.18963566 0.21292247 0.16279787 0.28774518 0.31030995 0.2623809 0.28273624 0.12948093
0.1334794 0.33986086 0.34383747 0.27079993 0.08357693 0.13347629 0.2068741 0.12517056
0.17333905 0.24573918 0.3541557 0.27891308 0.32868108 0.23006827 0.29966605 0.16786312
0.22550806 0.35022098 0.46563512 0.2765031 0.16514975 0.2352616 0.30975527 0.28215402
0.22032107 0.15340565 0.24791999 0.15293828 0.283666 0.22766256 0.2423964 0.3276401
0.20255555 0.36215252 0.27288347 0.1040087 0.2035315 0.31416857 0.17518288 0.09775663
0.33670565 0.13971253 0.24867421 0.31088966 0.23786177 0.1535047 0.2680221 0.29915893
0.33999467 0.36447078 0.31922537 0.3449898 0.30699795 0.28405887 0.18431328 0.27192685

features.features.5.bias f4 [64]
00000000: 2526 37bd 2c0b d9bd f826 22bd 553d f7bd
00000010: fe17 2bbe 0d05 b3bd adc1 23be d810 dfbd
00000020: 6664 babd 569f 2fbe 8093 bcbd 43f7 ebbd
00000030: 2965 103e 477c 4dbd c8e8 91bd 4a56 993d
00000040: 213c 80bd 42bc 28be 2170 2cbe e4a6 01be
00000050: ff99 3abe 1e7f 18be 7b72 02be 3769 b5bd
00000060: 3daf efbd a0c0 e0bd 30bf 91be d9ac 23be
00000070: 77dd d5bd 628f e0bd b3cf 25be bc43 20be
00000080: 0e73 b1bd ca0a 59bd 46c6 0fbe 4bfc e9bc
00000090: cf01 d8bd a66b afbd 9fff 2cbe 9de5 13be
000000a0: 5d16 e2bd 2f02 4dbe ae91 c4bd 9f4b 58bd
000000b0: 189c b8bd ac0a 21be 7642 cdbd 21cc 9c3e
000000c0: d9c9 2fbe 6ed2 79bd 4026 42be b776 31be
000000d0: e757 47be 62ab 06be e5e7 febd 1a0a 3ebe
000000e0: 8066 17be 8890 57be 9f05 33be de96 4bbe
000000f0: f54f 5ebe b660 13be d404 86bd 6cb5 2ebe
-0.04471411 -0.10597834 -0.039587945 -0.12072245 -0.16708371 -0.08741198 -0.1599185 -0.108918846
-0.09101181 -0.17150626 -0.09207821 -0.11521771 0.1410109 -0.05016735 -0.071244776 0.074871615
-0.06261469 -0.16478065 -0.16839649 -0.1266132 -0.18222807 -0.14892241 -0.12738983 -0.08857959
-0.11703346 -0.1097424 -0.28466177 -0.15983905 -0.10442632 -0.10964848 -0.16192512 -0.15650839
-0.08664523 -0.052988805 -0.14040479 -0.028562685 -0.1054722 -0.08565454 -0.16894387 -0.1444306
-0.11039422 -0.20020364 -0.09598099 -0.052806493 -0.090141475 -0.15726727 -0.10022442 0.30624488
-0.17166843 -0.060991697 -0.18959904 -0.17330442 -0.19467126 -0.13151315 -0.12446574 -0.18558541
-0.14785194 -0.21051228 -0.17482613 -0.1988177 -0.21710189 -0.14392361 -0.0654389 -0.17061394

features.features.5.running_mean f4 [64]
00000000: 04bb f73c 6a98 3bbe a0f8 34bd 53cd 40be
00000010: 9171 12be 6853 02be ae83 dbbd ec03 73bd
00000020: b9a4 57bc 3478 4ebe 71e0 34be 0a8b 61be
00000030: e027 793c 712b d3bd 03ac 42bc fce7 bdbd
00000040: 93ed 45be a9b9 cebe 8cd1 b8be 1ad9 52be
00000050: b6b7 1cbe ebd3 b3be 0385 59be 0ab6 ffbd
00000060: f346 08bf b7a5 29be b1ee c5be b9eb 82bd
00000070: e183 183d 7717 0fbe 96c7 fdbd c655 45be
00000080: ede7 63be e12d 47bd 7350 2abe a093 17be
00000090: 0e79 eebd 25bd cbbd f8b7 c1bd f1a0 b6be
000000a0: 2c8f 06be 7e0d 8ebe 0c5d 49be 4919 f9ba
000000b0: bd0e afbd cc2f 74bd b8d6 33bd 752b 8ebc
000000c0: 73a4 1ebe 6109 ae3d ea1b 0bbe c2b7 c1be
000000d0: 9885 09be 5eb9 f8bc 10ee 77be 7eb0 dfbd
000000e0: 4eca 99be 129c 4fbe 3400 01be ddd7 5dbe
000000f0: 4fe1 08bf 5dba 44bd a5f8 20be 6df9 73bd
0.030240543 -0.1831986 -0.04418242 -0.18828325 -0.14301135 -0.1272713 -0.10718475 -0.059329912
-0.013161832 -0.20163041 -0.17663743 -0.22025695 0.015207261 -0.1031102 -0.011881831 -0.09272763
-0.19328909 -0.40376022 -0.36097372 -0.2059063 -0.15304455 -0.35122618 -0.21242146 -0.12485893
-0.5323326 -0.16567121 -0.3865867 -0.06392617 0.037235145 -0.13973795 -0.123915836 -0.19271001
-0.22256441 -0.048627738 -0.16632251 -0.14802408 -0.11644183 -0.09948186 -0.094589174 -0.35669664
-0.13140553 -0.2774467 -0.19664401 -0.0019004728 -0.08547733 -0.059615895 -0.043905944 -0.017354706
-0.1549242 0.08497883 -0.13584867 -0.3783551 -0.13429868 -0.030361827 -0.24211907 -0.10922335
-0.3003716 -0.2027438 -0.12597734 -0.21664377 -0.53468794 -0.048029292 -0.1571985 -0.059564043

features.features.5.running_var f4 [64]
00000000: 6f85 023d 20b8 0b3d e61d ef3c 0cef e13d
00000010: e2dc a83d f646 b33d 9862 883d f5d5 4c3c
00000020: a039 913c 7765 183e c49d 143e bbb3 7c3d
00000030: 091c 9d3c e6d3 af3c e23d 2d3d ed20 173d
00000040: bb83 bc3c 10ee 503d 20f4 163e a40d cd3d
00000050: 5e48 873d 0d76 043d 41f4 cf3d b4ad be3c
00000060: c4b1 dd3d 9e39 3a3e a2aa 8c3e d3dd 4a3d
00000070: 354c a03c 5b1b 923d 68c9 b53d ce51 af3d
00000080: ae5b c63d 5476 fa3b 7182 703d b0f5 2b3d
00000090: ddb0 a43d ed68 393d 6fca 233d 029c 293e
000000a0: 1e7f da3c 352b ca3d 666f 993d edb8 323c
000000b0: cb59 533d 95a1 b13d 7695 d93c 60de f93c
000000c0: 9cca dd3d 4ad4 e73c da6b 213d 4387 0d3e
000000d0: 69dd be3c 09dc a33c e112 b93d 2033 093d
000000e0: af33 1e3e 4c58 e23d 6d23 d63d 8d32 953d
000000f0: e8c8 f03d d272 743d 8ac4 6b3d 21c1 8b3d
0.031865533 0.034111142 0.029189061 0.11031923 0.08245255 0.08753769 0.0665943 0.012502183
0.017727673 0.14882456 0.14513308 0.06169484 0.019178407 0.021463346 0.042295344 0.036896635
0.023012033 0.051008284 0.14741564 0.10012367 0.066056 0.032339144 0.101540096 0.023276187
0.10824922 0.18186042 0.27473933 0.049527954 0.019567588 0.07134124 0.08876306 0.08560525
0.09685455 0.0076435003 0.05871815 0.041982353 0.080415465 0.04526608 0.039987978 0.16563419
0.026671942 0.09871522 0.07491951 0.010908348 0.051599305 0.086733975 0.026560526 0.030501544
0.1082966 0.02829947 0.039409496 0.1382113 0.023298936 0.020002382 0.09036804 0.033496022
0.15449403 0.110519975 0.10455976 0.072850324 0.1175707 0.059679814 0.05756048 0.06823946

features.features.8.weight f4 [64, 64, 3, 3]
00000000: 55a9 1fbd 608e ce3c fbdf 14bc 9e21 82bd
00000010: e923 953c 3ed2 9abc 6494 53bd 6575 473c
00000020: 064a 45bd 4b00 173c 2fb9 c43c 3e36 803d
00000030: d655 c2ba 1ae8 69bc f5a3 033d e481 bd3c
00000040: a770 5cbc 20d5 e439 e520 21bd 8a73 c4bb
00000050: cbb5 b7bc d9d6 2d3c d713 943c 3808 743c
00000060: 348b 013d b46b 003d 3759 0b3d 46e6 7d3d
00000070: b8fd 993d 32c8 af3d b934 043d 1ddc 583d
00000080: 3bea 8c3d 8228 893d 3677 e73c 615e 703d
00000090: 25b5 803d b91d 823d 4e79 ad3d 8e2f ed3c
000000a0: 29d6 3a3c 6aef 863d ebc8 b33c 83d8 78bb
000000b0: f099 f33c c6e9 83bc ae69 973c 5daa d7ba
000000c0: 43ac e3bb 6a67 8fbb 4304 cebb 3a58 32bd
000000d0: ff43 3cbd a862 5ebd 39c2 773c 8740 003d
000000e0: 68ed c13c 2373 803d d39c 133d c6e9 ed3c
000000f0: ea45 f63c 60f1 b33c a46f 22bc 5f55 0ebc
00000100: 28a9 20bc cec6 c7bc 2235 5d3b ef31 00bc
00000110: 0380 d2bc 5d3b 9e3c 8ad1 3e3c dd1c 98bc
00000120: f901 f4bb 0367 1b3c 0ee9 2c3b ac82 39bb
00000130: f0fe 433c 3718 be3b ebba a13b 4c3b 9a3c
00000140: 2fb6 723c 44e9 debb e521 50bc 66ed babc
00000150: cd92 f9bc 9874 15bd 608f 30bd 7730 ddbb
00000160: 1bd2 3cbb 7d27 13bc a3ea 39bc f133 cbbb
00000170: 094f 5dba 1b9e 14bd b7f7 08bd 32b9 dabc
00000180: 3be1 043c 3828 023d 2e32 473c 7e0f d73c
00000190: b140 8c3c 9ab2 713c 65c5 253c 4393 e63b
000001a0: aeee bb3b 84fd 583c c954 9c3c b710 b93c
000001b0: 1479 dbbc 3243 883b a742 b9bb 2ce7 27bd
000001c0: cf47 8dbc 1a9b ecbc 6ce6 04bd 66de a1bc
000001d0: 09f4 3ebd d936 09bc 729d 3b3c cf9b aebb
000001e0: 1384 1cbc 5db1 4c3c aba8 0dbc e2fa 61bc
000001f0: 4444 7cba 70e4 ccbc a824 3dbc 0561 6dbc
00000200: 952a 053d a379 f6bc b0b5 d6bc 1f02 7e3c
00000210: df0b 82bc fedf 8d3b 1f19 8ab8 8685 7fbc
00000220: e920 bfb8 27fe 8d3b 6619 bebc 88a9 2dbc
00000230: b594 18bc 1c51 debc 9624 8fbc bd7a c6bc
00000240: c0f0 a3bc 7396 8ebc c5fe 1b3b a0c1 82bc
00000250: 25d4 77bc 6e25 973c 3662 073d 8ed3 373d
00000260: be8f 623d 1cf0 5abb 0016 aa3a c97c b2bb
00000270: 1420 acbc 3c2c 0abd dd16 d8bc 1009 b8bb
00000280: 93b8 b6bc 3892 e5bc 7fd6 4dbb 2c68 8ebc
00000290: 3fe1 1fbc 9111 9abc d250 12bd afce 7abc
000002a0: c8d9 12ba 2cd5 80bd d0ef 00bd ac1a 093d
000002b0: 4459 45bb 6dcc d73b 0cc1 f23c 44db b9bb
000002c0: e4f6 f93b a8e9 d93c 42fb 68bc a800 5e3c
000002d0: 2a14 6cba fe6a 09bc 8005 82bc 2d1a 233d
000002e0: 7693 553c ea5a 723c 3241 473c adf1 893c
000002f0: 32ae a2bc f360 543b 92d8 82bc 1951 a1bb
00000300: 992c 013d b818 af3c c4ce 253d 71af 323d
00000310: e4f4 c63c 704a 223d 608c ebbc 2522 26bc
00000320: ea44 b4bc a120 d6bc 6e69 23bc 6487 dcbc
00000330: 7082 69bc 8111 e7bb 9245 ebbc dc4e 22bd
00000340: dd61 aebc 0a50 22bc 487d 18bd 5a13 45bc
00000350: ff10 083c 2f05 18bd f431 dbbc af1b 60bb
00000360: b569 e7bc 6f54 e9bc 1709 60bc 1458 2abd
00000370: c641 1fbd d949 b2bc 6334 04bd a75b 19bd
00000380: b255 8ebc 61d8 3a3c 989a 713c f446 e63c
00000390: 1230 e13b 01e0 2d3c e586 b23c f4e1 1f3c
000003a0: 2744 293c 2c7b 0f3d f0a7 00bd 7cfa 01bd
000003b0: bbab 75bc 198b ffbc 4aec 33bb 08ed c9bb
000003c0: 78fc 2bbd 4bfe 95bc 4b28 1a3c 6c46 0cbd
000003d0: c690 73bc b29b adbc 263e 14bd 9b75 44bd
000003e0: 9fae 21bd b0ad 07bd e315 53bd 613b 26bd
000003f0: 603b d53c bd16 1e3d a3d2 c83c b222 ca3c
-0.038979847 0.025214374 -0.009086604 -0.06354068 0.0182056 -0.01889908 -0.05165519 0.012173985
-0.048166297 0.009216378 0.024014084 0.06260346 -0.0014826606 -0.014276529 0.032138783 0.023133226
-0.013454593 0.0004364634 -0.03933801 -0.0059952186 -0.022425553 0.010610306 0.018075867 0.014894538
0.031626895 0.031352714 0.03402063 0.061987184 0.07519096 0.08583106 0.032276843 0.05294429
0.068806134 0.066971794 0.028255086 0.058683757 0.062845506 0.063533254 0.08470403 0.02895334
0.011403599 0.06588633 0.021946391 -0.0037970848 0.029736489 -0.016102683 0.01848301 -0.001645397
-0.0069480254 -0.0043763416 -0.006287129 -0.04354117 -0.045963284 -0.054293305 0.01512199 0.031311538
0.023672774 0.062719606 0.03603823 0.029042136 0.030062634 0.021965683 -0.0099143125 -0.008687346
-0.009805955 -0.02438679 0.0033753593 -0.007824405 -0.025695806 0.019315416 0.011646638 -0.01856845
-0.007446524 0.009485009 0.0026384029 -0.0028306646 0.011962637 0.0058012265 0.0049356124 0.018827103
0.014813944 -0.00680271 -0.012703394 -0.022818279 -0.030465508 -0.036488146 -0.043105483 -0.006750162
-0.0028811756 -0.008981583 -0.011347446 -0.0062012603 -0.0008442258 -0.036283594 -0.033439364 -0.026699636
0.00811034 0.031776637 0.01215796 0.026252504 0.017120691 0.014752055 0.010117863 0.007036598
0.00573524 0.013244037 0.019083397 0.022590978 -0.026791133 0.004158401 -0.0056536975 -0.040991947
-0.017246155 -0.028882552 -0.03244631 -0.019759368 -0.04661945 -0.008374893 0.011451112 -0.0053286324
-0.009552973 0.012493459 -0.008646171 -0.013792725 -0.00096232095 -0.025011271 -0.011544384 -0.014488463
0.032511313 -0.030087298 -0.026209682 0.015503435 -0.015874801 0.0043296805 -6.585032e-05 -0.015595799
-9.11372e-05 0.004333276 -0.02320547 -0.010599501 -0.009312798 -0.027138285 -0.0174735 -0.024228448
-0.02001226 -0.017405724 0.0023802978 -0.015961468 -0.015126263 0.018450465 0.033052646 0.04487949
0.055312864 -0.0033407276 0.0012976527 -0.0054470045 -0.02101139 -0.03373359 -0.02637809 -0.0056163147
-0.022304809 -0.028023824 -0.0031408367 -0.017383657 -0.009758293 -0.018807204 -0.035721608 -0.015308066
-0.000560191 -0.06290659 -0.031478703 0.033472702 -0.003011302 0.0065856487 0.029633068 -0.0056718905
0.0076283086 0.026600674 -0.014220061 0.013549961 -0.000900569 -0.008387325 -0.015871763 0.039819885
0.013035646 0.014792183 0.01216154 0.016838873 -0.019858453 0.003240642 -0.01597241 -0.0049229977
0.031536672 0.021374092 0.04048039 0.043624345 0.024286695 0.03962177 -0.02875346 -0.010139977
-0.022005517 -0.026138606 -0.009973867 -0.026920028 -0.01425229 -0.007051647 -0.028719697 -0.039625987
-0.0212869 -0.009906778 -0.037228853 -0.01202854 0.008304833 -0.03711432 -0.026757218 -0.0034196188
-0.028248647 -0.028482644 -0.013674042 -0.041587904 -0.038881086 -0.021763729 -0.032276522 -0.037440922
-0.017374847 0.011404128 0.014746331 0.028110005 0.0068721855 0.010612489 0.021792838 0.009758461
0.01033119 0.035029575 -0.031410158 -0.03173302 -0.014994557 -0.031194257 -0.0027454072 -0.0061622895
-0.04198882 -0.018309733 0.009409021 -0.034246847 -0.01486606 -0.021192405 -0.036192082 -0.04796372
-0.039473172 -0.033124626 -0.051534545 -0.040583972 0.026029289 0.038595904 0.024514502 0.024674747

features.features.8.bias f4 [64]
00000000: 0944 05b7 571c 44b7 59d3 8ab7 247b 01b7
00000010: e42e 90b7 04ba 68b6 8d62 e236 cc54 3f37
00000020: 79ec 00b7 24f1 feb6 610b 3db7 22bd 19b4
00000030: a98f 00b5 788f d536 21a5 62b7 0371 b2b4
00000040: 9df1 55b7 78f3 3436 0d22 2237 812d 22b7
00000050: 3efa c835 8cd0 55b7 fe54 0e37 d5a3 8e37
00000060: 861e c9b6 790f 8b37 71f2 2eb7 5c72 5a37
00000070: 16a7 49b7 b746 1336 2fb7 8734 2096 6eb7
00000080: c979 4d37 ed61 5537 fc45 8433 d5a4 70b7
00000090: 8cee be36 3498 06b6 12e2 1db6 9749 2db7
000000a0: 11d0 3e36 2009 42b6 c4e8 ff33 c429 6fb7
000000b0: cdc8 3136 f23d 88b7 decb 37b7 4b61 01b7
000000c0: 6405 df34 0d27 f5b6 3b30 fab6 7f8a 6e37
000000d0: 2c7f 6c37 ec97 7db7 7732 3036 05d3 8737
000000e0: 2a7c 6bb7 a965 5bb7 f5e3 0db7 de7d c2b6
000000f0: 0c1f 8537 4728 95b7 533f 95b6 a8d7 32b6
-7.943258e-06 -1.1689109e-05 -1.6549298e-05 -7.71767e-06 -1.7187973e-05 -3.467897e-06 6.7467977e-06 1.14042305e-05
-7.684453e-06 -7.5978623e-06 -1.1267927e-05 -1.4318042e-07 -4.789277e-07 6.3645966e-06 -1.3509097e-05 -3.323731e-07
-1.2752044e-05 2.6963808e-06 9.6638805e-06 -9.666547e-06 1.4973991e-06 -1.2744345e-05 8.483648e-06 1.700401e-05
-5.99382e-06 1.6577296e-05 -1.0427656e-05 1.3020439e-05 -1.2019436e-05 2.1945868e-06 2.5278993e-07 -1.4220859e-05
1.22473075e-05 1.27185895e-05 6.159459e-08 -1.4343493e-05 5.6902118e-06 -2.005615e-06 -2.3526413e-06 -1.03287375e-05
2.8433317e-06 -2.8913564e-06 1.1916703e-07 -1.4255234e-05 2.6491937e-06 -1.6241309e-05 -1.09551165e-05 -7.711652e-06
4.154091e-07 -7.306115e-06 -7.4561954e-06 1.4218152e-05 1.4096306e-05 -1.5115347e-05 2.6255418e-06 1.6191518e-05
-1.4036001e-05 -1.3077087e-05 -8.45733e-06 -5.7963034e-06 1.5869293e-05 -1.778094e-05 -4.447918e-06 -2.6649595e-06

features.features.9.weight f4 [64]
00000000: 98d6 2c3e ae32 453e 1d6e 4f3e 25dd 703e
00000010: 6053 4f3e c0f3 7a3e cc23 513e e681 693e
00000020: 60e8 873e 4bca 813e 9910 973e 99d2 b53e
00000030: 1f51 593e b721 833e 5228 333e 20e2 823e
00000040: 44d2 633e a59b 7b3e 5b89 7d3e 2dca 533e
00000050: f7fc 793e 4204 813e d5f3 7e3e 7e06 653e
00000060: 77e9 803e e2c4 9b3e 6a83 8e3e 3e7c 8a3e
00000070: 2b57 b03e df57 893e ee27 4f3e ca56 833e
00000080: 8444 a53e 2253 943e 7e1a 8d3e 344c 6e3e
00000090: b1ae 433e cf5e a93e 57e1 8c3e 7535 843e
000000a0: e8e5 8f3e 6683 873e 1323 673e 9bb3 863e
000000b0: 68bb 803e 6072 873e 818d 383e 8ebf aa3e
000000c0: 789b 953e b6f7 0d3f 583a 993e e035 723e
000000d0: bde6 703e 9df2 c43e e163 633e 9ce0 5e3e
000000e0: ec0b 803e 10c4 4b3e e26d b63e da3a 823e
000000f0: d372 753e 86ef 663e 5ac1 4e3e f674 8b3e
0.16878736 0.19257614 0.20256849 0.2352186 0.20246649 0.24507046 0.20423812 0.22803459
0.26544476 0.2534965 0.2950485 0.35512236 0.21222351 0.2561166 0.1749585 0.25563145
0.22248179 0.24571092 0.24759428 0.20682593 0.24412905 0.2519856 0.24897702 0.22365758
0.2517812 0.30423647 0.27834636 0.27047914 0.34441504 0.26824853 0.20230076 0.25652152
0.32278836 0.28969675 0.27559274 0.23271257 0.19109608 0.33080146 0.2751567 0.25822034
0.28105092 0.26467437 0.22571974 0.26308903 0.2514298 0.2645445 0.1802273 0.3334927
0.29220176 0.554561 0.29927325 0.23653364 0.2352552 0.3846635 0.2220607 0.21765369
0.25009096 0.1989901 0.3563071 0.25435525 0.23969583 0.22552308 0.20190945 0.27237672

features.features.9.bias f4 [64]
00000000: 194b c2bc b5b5 3cbd edb0 48bd ae32 c6bd
00000010: c43f 9cbd 403a 5a3b 0e56 52bd 4a4e bbbd
00000020: 54a0 efbd 9330 cbbc f09a b5bd 4f27 6ebe
00000030: 2f61 ffbd 2e7b 26be d4b6 eb3c 7832 cfbd
00000040: fccb 82bd a7c6 09be ac2e 49bc b775 ccba
00000050: e2b5 dcbd 0f1f acbd 7d64 c4bd 6762 96bd
00000060: 4475 3ebd 9361 92bd 36b3 3abd d38c 12bd
00000070: 76f9 b1bd a716 03be ae18 293b b04a d6bd
00000080: 3f7c f8bd 16a3 1cbd 90f0 4cbe 39e3 bebd
00000090: 2303 383c 4450 3ebe 3eca 1fbe 8b17 f2bd
000000a0: b8f0 cabd a3ee ffbd 3186 96bd f181 debd
000000b0: 249d 25be 4569 c2bd bd53 4cbd d4e7 1abe
000000c0: d831 d5bd 408e 57be 5d60 ffbd 8bfb aebd
000000d0: e58d a8bd e447 c9bd 34e8 7dbd 09b9 f0bd
000000e0: e275 b2bd 9e1d e23c cf85 13be 6848 4fbd
000000f0: 2dc7 98bd 96c3 87bd f412 53bd 4cb9 8abd
-0.02371745 -0.046071727 -0.048996855 -0.09677635 -0.0762935 0.003329888 -0.0513516 -0.09145792
-0.11700502 -0.024803435 -0.088674426 -0.23257183 -0.12469708 -0.16257927 0.028773703 -0.10117048
-0.06386563 -0.13454686 -0.012279194 -0.0015599047 -0.10776879 -0.084043615 -0.09589479 -0.073429875
-0.046498552 -0.07147517 -0.045581065 -0.03577883 -0.08690159 -0.1280161 0.0025802064 -0.10463464
-0.12133073 -0.03824147 -0.20013642 -0.09320683 0.011231217 -0.18585306 -0.15604493 -0.11820897
-0.09909195 -0.12496688 -0.07349814 -0.10864628 -0.16173226 -0.09492735 -0.049884547 -0.15127498
-0.104098976 -0.21050358 -0.12469552 -0.08544072 -0.08230189 -0.09828165 -0.061989024 -0.11754043
-0.087138906 0.027602013 -0.14406513 -0.05060616 -0.07459865 -0.06629102 -0.051531747 -0.06773624

features.features.9.running_mean f4 [64]
00000000: 99a1 01be 7b16 0c3e a84d bb3d 19cd 1fbd
00000010: c790 323e fb5b 48be 72b5 03be 1bc4 903c
00000020: 6432 e3bc f07d 10be 703e 87be cd09 bbbe
00000030: e96b 273c 718e 9c3c a903 513e b38c 34be
00000040: 8b77 42bd 3393 0f3d 208d 05be c373 cabc
00000050: 95c5 93bc dbb1 d03c 3d03 b9bd 2723 e8bd
00000060: 7041 4ebd 877d 1bbe f967 dabd a262 26be
00000070: 6387 e5bd b030 9d3c 9caf 0e3a d2ee 403c
00000080: e6d0 81be 4c18 89bd e30a 32bd 5a58 a7bd
00000090: e1b3 5ebd c752 20be 41f8 87b9 1c99 87bd
000000a0: 5b70 1bbe c3e1 dbbd d010 123d 5347 70bd
000000b0: 5250 b23c c55a 33be eb0b 413c 3b85 97bd
000000c0: bf58 f4bd a206 20be 95bd 33be 6c0e 0cbe
000000d0: 51ef aebb 3637 21be d5c3 2ebd 7d7d 143e
000000e0: 9385 6fbd 9969 603d caad 75be b3a7 0ebe
000000f0: eee2 44be 08d7 afbd 4673 2a3d 9852 ee3b
-0.12659301 0.1368045 0.09145671 -0.039013956 0.1743804 -0.19566338 -0.12862185 0.017671635
-0.027733989 -0.14110541 -0.26414824 -0.36530915 0.010218599 0.01911089 0.20411552 -0.17631797
-0.047477286 0.03505249 -0.13042116 -0.024713403 -0.01803855 0.025475433 -0.09033821 -0.1133483
-0.050355375 -0.15184604 -0.106643625 -0.16248563 -0.112074636 0.019188255 0.0005443038 0.011775689
-0.2535469 -0.066940874 -0.043467414 -0.081711486 -0.054370765 -0.15656577 -0.0002593417 -0.06621
-0.15179579 -0.1073642 0.035660565 -0.05866177 0.021766815 -0.17515095 0.011782627 -0.073984586
-0.119309895 -0.1562753 -0.17552789 -0.13677377 -0.0053385873 -0.15743718 -0.04266723 0.14500995
-0.058476996 0.054788206 -0.23992077 -0.1393116 -0.19227192 -0.08585936 0.04161384 0.0072730295

features.features.9.running_var f4 [64]
00000000: 59fc 193c 7edf 413c 5939 493c 0697 863c
00000010: 12fb 2c3c 8acd 883c e1ce 673c 4529 333c
00000020: d3cd 713c 0fab 923c 7829 b13c e1cb e63c
00000030: f3d8 123c f287 323c 2bbe af3c f537 863c
00000040: a383 6b3c dc29 6d3c c38c 963c c938 a73c
00000050: 6ee1 453c fe93 853c 2154 6e3c 2c2e 763c
00000060: b30c 903c 6d6f ad3c e0d3 a73c a0d8 913c
00000070: 02fc b33c fe53 6a3c 53c9 723c ea7b 363c
00000080: 56a3 fd3c cecd a53c 4bcc 303c 928d 633c
00000090: 09fc a43c 5240 c33c 575e a93c 52db 403c
000000a0: 90ff a53c a7e8 823c ab1a 6d3c e5b1 643c
000000b0: 116b 813c c1f8 aa3c 6b81 333c e1b6 d63c
000000c0: 1e5d 003d 4cf4 043d bf33 943c 6d6f 2e3c
000000d0: 10b4 583c 0823 cd3c 2353 973c 3eb9 e03b
000000e0: 2d8b 663c ae20 d63c 1cd2 163d 22df a83c
000000f0: a3d6 6a3c d847 4d3c b8d3 593c 0a10 963c
0.009398543 0.01183307 0.012281739 0.016429435 0.010557907 0.016699571 0.014148445 0.010935132
0.014758545 0.017903833 0.02162622 0.028173389 0.008962858 0.01089667 0.021452984 0.016384104
0.014374646 0.014475312 0.018377667 0.02041282 0.012077672 0.01630592 0.014546425 0.015025657
0.01758418 0.021171296 0.020486772 0.01780349 0.021970753 0.014302252 0.014818507 0.011137942
0.030961674 0.020239737 0.010790895 0.013888733 0.020139711 0.023834381 0.020674868 0.01177104
0.020263463 0.015980078 0.01447169 0.013958429 0.015798124 0.020870568 0.010956149 0.02621025
0.031338803 0.032459542 0.01809108 0.010646683 0.013226524 0.025041118 0.01847226 0.00685802
0.014071268 0.02613863 0.03682147 0.02061421 0.0143334 0.012529336 0.013295107 0.018318195

features.features.11.weight f4 [64, 64, 3, 3]
00000000: 4c4f 6038 884f a338 0022 0938 1a46 8bb7
00000010: 0f4e 9238 d284 cf37 8d55 4438 679f 0e38
00000020: 2094 cf36 3049 5e38 fa3a 5938 431f ed38
00000030: c999 2538 9efd 8f38 11ec a238 bf23 b938
00000040: 1a18 0639 d75e c538 0f6a 2638 de4f ac37
00000050: 98d0 8438 2fea f837 6171 8d37 49bd 8438
00000060: 1710 79b4 e246 aeb7 0aea 6037 c6ca a2b6
00000070: e683 9ab8 10a8 b7b7 3d54 5cb8 eafd 53b8
00000080: 491a 18b8 326f 45b7 d255 9db7 c4ae b936
00000090: 32dc 94b7 73c9 aeb7 d18d 34b8 ae67 9fb8
000000a0: a3fa 22b8 7c4b 69b8 73fc 41b8 23e5 86b8
000000b0: e522 72b8 2903 1338 9a00 16b9 3907 4eb9
000000c0: f2ba 1237 4951 05b9 7d1e 35b9 f81e 7236
000000d0: b5a5 d836 0205 c437 ff47 8138 88ae 5838
000000e0: a00e bdb8 a91f 8538 4d9b 9138 cb94 a436
000000f0: a1d7 1c39 c4bf 4538 063a 5a38 e188 23b8
00000100: 6b7d e0b7 84cb 2eb7 d1e4 1bb8 5008 bab8
00000110: 8d2c a8b7 7bcd 8cb8 4032 5cb7 b8a1 acb8
00000120: b2bc 1fb8 deac 96b7 a66c 8132 0a61 8eb7
00000130: 2323 b5b8 2ace d0b7 e3d7 c1b5 a6ce ebb7
00000140: 50f0 39b8 a181 b938 9509 7838 0aab aa38
00000150: 1025 1f39 4b44 f138 ce1a c238 0b46 9138
00000160: 5dde b938 729d b738 cca6 23b8 5dc6 78b7
00000170: 12d1 4ab8 2571 2bb8 8b84 70b8 dca5 7eb8
00000180: d392 22b8 0386 b7b7 0e2e 7fb8 dbef 8cb8
00000190: 3c75 51b8 f8aa a7b8 c99f 13b9 2e59 f3b8
000001a0: 72b2 c9b8 24ad c8b8 a6fe 18b9 bec5 f4b8
000001b0: a378 b3b8 75fa 3ab8 42a7 ceb8 a7a3 98b8
000001c0: f238 4ab8 a22c a6b7 7c22 e5b7 264e 4cb8
000001d0: 0707 8eb8 3454 f7b7 c604 98b6 a2e6 a338
000001e0: 7e32 15b8 be9a 7436 a08d 42b8 4ce8 3bb7
000001f0: b463 cbb7 532b cc37 0787 d535 066f b637
00000200: 86f7 1436 9526 8737 505b aab7 5b87 92b7
00000210: 9ef4 d3b7 52bd 3db8 17c0 9337 3e48 fc36
00000220: 4cb6 42b7 2e2c c337 7526 d137 a83d 1a38
00000230: 467d e636 473e 22b6 403c 05b7 d213 8237
00000240: 6813 9eb8 8199 c8b8 194d 0eb8 749a ffb7
00000250: 0a7c b2b7 c19f 48b8 9bb0 3736 f12f 48b7
00000260: f1fc 3837 d32c 5c38 8394 f437 c60b a6b7
00000270: 4150 8837 2f52 3438 9290 3338 f803 8838
00000280: 3968 6738 6104 3938 1e5d 72b7 605f dcb7
00000290: 0b25 68b8 99ff 95b8 a67f d2b8 9735 87b8
000002a0: 1387 d5b8 2157 e8b7 784d 8db8 6adb ff37
000002b0: 648c a3b7 b1c4 56b8 783d a038 9121 e237
000002c0: 9709 c937 f528 1337 a474 1437 f2f6 e236
000002d0: 10ac b7b7 e98e 5a37 5eab 8cb7 a925 29b8
000002e0: ab47 d1b7 9f93 46b7 53cc 01b8 61ab deb7
000002f0: ce5f 1737 ab30 8938 9da8 4738 cd2b c138
00000300: 939a 0a38 ea8d 5038 78e5 b138 4862 e737
00000310: 264d d937 466e ae37 9543 b0b7 146d 33b7
00000320: a893 0137 ed2d 33b7 83fb e2b7 118d 2338
00000330: a60a d7b7 b89c a4b7 f25b ea35 b7e5 5cb7
00000340: cae6 90b7 21fa cf35 d776 0838 9c1d 4f38
00000350: b09f 86b7 1c45 c437 1fad 7738 ef59 8c38
00000360: 972a ad38 57ed 4d38 3efd 4638 6d75 b738
00000370: dffe 3838 f0fd 1338 57ee 5238 14f0 3b38
00000380: 5ba6 3738 e836 3738 bc81 ab38 bfe9 cb37
00000390: 43a1 78b6 ebcf edb6 5603 8337 f67a 4738
000003a0: 2620 1938 d06d 5138 62ce 80b7 a4f6 77b8
000003b0: bc10 1fb7 aa3a ebb7 ee9d 8635 abb5 2eb6
000003c0: 47f5 5338 9962 1b37 d014 9eb6 36f3 d9b7
000003d0: 45ae 7bb8 7434 d9b8 d444 07b7 d1a6 a337
000003e0: fe8a b537 635f b638 9e11 79b6 32d6 0b39
000003f0: d6af beb7 8284 03b8 5eda dab7 ce0c 58b8
5.3479613e-05 7.7872595e-05 3.269501e-05 -1.6602735e-05 6.976362e-05 2.4738172e-05 4.6809717e-05 3.4003893e-05
6.1863248e-06 5.2997086e-05 5.1791758e-05 0.000113068636 3.948229e-05 6.866011e-05 7.768733e-05 8.828146e-05
0.00012788214 9.411357e-05 3.967626e-05 2.0541189e-05 6.333104e-05 2.9672954e-05 1.6861306e-05 6.3295076e-05
-2.3195786e-07 -2.0775424e-05 1.3405932e-05 -4.851582e-06 -7.36786e-05 -2.189356e-05 -5.253054e-05 -5.0542796e-05
-3.6264104e-05 -1.1768005e-05 -1.8755822e-05 5.533775e-06 -1.7745511e-05 -2.0836223e-05 -4.304742e-05 -7.601023e-05
-3.8857233e-05 -5.562183e-05 -4.6249897e-05 -6.432298e-05 -5.7729794e-05 3.5050474e-05 -0.00014305339 -0.00019648382
8.745805e-06 -0.0001271415 -0.00017272863 3.6078836e-06 6.4565925e-06 2.3367353e-05 6.16461e-05 5.1660958e-05
-9.0149464e-05 6.3478314e-05 6.943066e-05 4.9049027e-06 0.00014957647 4.7147056e-05 5.202929e-05 -3.8989707e-05
-2.6761283e-05 -1.0418593e-05 -3.716798e-05 -8.8707195e-05 -2.0047906e-05 -6.713994e-05 -1.3124722e-05 -8.2317216e-05
-3.808429e-05 -1.7961891e-05 1.5066984e-08 -1.6972906e-05 -8.637297e-05 -2.4891535e-05 -1.4442452e-06 -2.8110411e-05
-4.4331246e-05 8.845633e-05 5.913673e-05 8.13809e-05 0.00015177228 0.00011504496 9.2556336e-05 6.927185e-05
8.862906e-05 8.7554465e-05 -3.901757e-05 -1.4828137e-05 -4.8355265e-05 -4.087495e-05 -5.73439e-05 -6.0712788e-05
-3.876055e-05 -2.1877704e-05 -6.083963e-05 -6.720397e-05 -4.9938666e-05 -7.995026e-05 -0.00014078537 -0.00011603754
-9.617665e-05 -9.568993e-05 -0.00014590714 -0.00011671659 -8.5578555e-05 -4.4579112e-05 -9.854e-05 -7.2784074e-05
-4.8213587e-05 -1.9809526e-05 -2.7314985e-05 -4.871017e-05 -6.7723966e-05 -2.9483905e-05 -4.5305087e-06 7.8154044e-05
-3.5571393e-05 3.6448905e-06 -4.6385103e-05 -1.1200154e-05 -2.4245914e-05 2.433887e-05 1.5909035e-06 2.174779e-05
2.2197796e-06 1.611122e-05 -2.03081e-05 -1.7467586e-05 -2.5267069e-05 -4.523743e-05 1.7613214e-05 7.5185953e-06
-1.1605745e-05 2.3266384e-05 2.493265e-05 3.6773883e-05 6.869118e-06 -2.4176131e-06 -7.941446e-06 1.5506437e-05
-7.537642e-05 -9.5653355e-05 -3.392724e-05 -3.0470292e-05 -2.1277014e-05 -4.78325e-05 2.7371923e-06 -1.1932091e-05
1.1026147e-05 5.2493833e-05 2.9156223e-05 -1.9794224e-05 1.6249835e-05 4.2991884e-05 4.2811567e-05 6.4857246e-05
5.5171757e-05 4.4111515e-05 -1.4446005e-05 -2.6270456e-05 -5.534761e-05 -7.1524824e-05 -0.00010037357 -6.4472835e-05
-0.00010181791 -2.7697128e-05 -6.7378336e-05 3.0500541e-05 -1.9496489e-05 -5.120476e-05 7.640844e-05 2.695693e-05
2.3965533e-05 8.771419e-06 8.848645e-06 6.764073e-06 -2.1895423e-05 1.3027086e-05 -1.67691e-05 -4.0327814e-05
-2.4948115e-05 -1.183609e-05 -3.094629e-05 -2.6544267e-05 9.022608e-06 6.541734e-05 4.760233e-05 9.211116e-05
3.3045722e-05 4.9723232e-05 8.4827596e-05 2.7583112e-05 2.590434e-05 2.0793766e-05 -2.1012305e-05 -1.0694628e-05
7.723378e-06 -1.0679924e-05 -2.7058419e-05 3.8993607e-05 -2.5634956e-05 -1.9623301e-05 1.7461118e-06 -1.31665065e-05
-1.7273607e-05 1.5495499e-06 3.2535605e-05 4.938022e-05 -1.6048405e-05 2.3397202e-05 5.905062e-05 6.692472e-05
8.257216e-05 4.909685e-05 4.744273e-05 8.747992e-05 4.4106386e-05 3.528403e-05 5.0289873e-05 4.4807864e-05
4.378553e-05 4.3681735e-05 8.17808e-05 2.4308332e-05 -3.7048746e-06 -7.0873552e-06 1.561797e-05 4.7559814e-05
3.6507983e-05 4.9931754e-05 -1.5354894e-05 -5.911909e-05 -9.481035e-06 -2.80415e-05 1.0029742e-06 -2.6033765e-06
5.0534753e-05 9.2616765e-06 -4.71119e-06 -2.598167e-05 -6.0005365e-05 -0.000103571365 -8.062652e-06 1.9508794e-05
2.1641605e-05 8.6962034e-05 -3.7114146e-06 0.00013335867 -2.2731645e-05 -3.135624e-05 -2.608931e-05 -5.151034e-05
